…
ws: 4 opt_level: O2 model_type: F model_in_channels: 3 model_keypoints: 10 transporter_combine_mode: max policy_action_select_mode: argmax policy_depth: 1 gym_reward_count_limit: None optimizer: Adam batch_size: 16 lr: None dataset: None dataset_train_len: 34000 dataset_test_len: 274 dataset_randomize: False data_aug_tps_cntl_pts: 4 data_aug_tps_variance: 0.05 data_aug_max_rotate: 0.1 data_aug_type: None dataset_1: first_images dataset_2: second_images model_z_channels: 64 cma_algo;: fast 
KeyNet(
  (encoder): Unit(
    (in_block): Sequential(
      (0): ReplicationPad2d((1, 1, 1, 1))
      (1): Conv2d(3, 64, kernel_size=(3, 3), stride=(1, 1))
      (2): BatchNorm2d(64, eps=1e-05, momentum=0.1, affine=True, track_running_stats=True)
      (3): LeakyReLU(negative_slope=0.01, inplace=True)
    )
    (core): Sequential(
      (0): ReplicationPad2d((1, 1, 1, 1))
      (1): Conv2d(64, 128, kernel_size=(3, 3), stride=(1, 1))
      (2): BatchNorm2d(128, eps=1e-05, momentum=0.1, affine=True, track_running_stats=True)
      (3): LeakyReLU(negative_slope=0.01, inplace=True)
      (4): MaxPool2d(kernel_size=2, stride=2, padding=0, dilation=1, ceil_mode=False)
      (5): ReplicationPad2d((1, 1, 1, 1))
      (6): Conv2d(128, 256, kernel_size=(3, 3), stride=(1, 1))
      (7): BatchNorm2d(256, eps=1e-05, momentum=0.1, affine=True, track_running_stats=True)
      (8): LeakyReLU(negative_slope=0.01, inplace=True)
      (9): ReplicationPad2d((1, 1, 1, 1))
      (10): Conv2d(256, 256, kernel_size=(3, 3), stride=(1, 1))
      (11): BatchNorm2d(256, eps=1e-05, momentum=0.1, affine=True, track_running_stats=True)
      (12): LeakyReLU(negative_slope=0.01, inplace=True)
      (13): MaxPool2d(kernel_size=2, stride=2, padding=0, dilation=1, ceil_mode=False)
      (14): ReplicationPad2d((1, 1, 1, 1))
      (15): Conv2d(256, 512, kernel_size=(3, 3), stride=(1, 1))
      (16): BatchNorm2d(512, eps=1e-05, momentum=0.1, affine=True, track_running_stats=True)
      (17): LeakyReLU(negative_slope=0.01, inplace=True)
      (18): ReplicationPad2d((1, 1, 1, 1))
      (19): Conv2d(512, 512, kernel_size=(3, 3), stride=(1, 1))
      (20): BatchNorm2d(512, eps=1e-05, momentum=0.1, affine=True, track_running_stats=True)
      (21): LeakyReLU(negative_slope=0.01, inplace=True)
      (22): MaxPool2d(kernel_size=2, stride=2, padding=0, dilation=1, ceil_mode=False)
      (23): ReplicationPad2d((1, 1, 1, 1))
      (24): Conv2d(512, 512, kernel_size=(3, 3), stride=(1, 1))
      (25): BatchNorm2d(512, eps=1e-05, momentum=0.1, affine=True, track_running_stats=True)
      (26): LeakyReLU(negative_slope=0.01, inplace=True)
      (27): ReplicationPad2d((1, 1, 1, 1))
      (28): Conv2d(512, 512, kernel_size=(3, 3), stride=(1, 1))
      (29): BatchNorm2d(512, eps=1e-05, momentum=0.1, affine=True, track_running_stats=True)
      (30): LeakyReLU(negative_slope=0.01, inplace=True)
    )
    (out_block): Sequential(
      (0): Conv2d(512, 64, kernel_size=(1, 1), stride=(1, 1))
      (1): LeakyReLU(negative_slope=0.01, inplace=True)
    )
  )
  (keypoint): Unit(
    (in_block): Sequential(
      (0): ReplicationPad2d((1, 1, 1, 1))
      (1): Conv2d(3, 64, kernel_size=(3, 3), stride=(1, 1))
      (2): BatchNorm2d(64, eps=1e-05, momentum=0.1, affine=True, track_running_stats=True)
      (3): LeakyReLU(negative_slope=0.01, inplace=True)
    )
    (core): Sequential(
      (0): ReplicationPad2d((1, 1, 1, 1))
      (1): Conv2d(64, 128, kernel_size=(3, 3), stride=(1, 1))
      (2): BatchNorm2d(128, eps=1e-05, momentum=0.1, affine=True, track_running_stats=True)
      (3): LeakyReLU(negative_slope=0.01, inplace=True)
      (4): MaxPool2d(kernel_size=2, stride=2, padding=0, dilation=1, ceil_mode=False)
      (5): ReplicationPad2d((1, 1, 1, 1))
      (6): Conv2d(128, 256, kernel_size=(3, 3), stride=(1, 1))
      (7): BatchNorm2d(256, eps=1e-05, momentum=0.1, affine=True, track_running_stats=True)
      (8): LeakyReLU(negative_slope=0.01, inplace=True)
      (9): ReplicationPad2d((1, 1, 1, 1))
      (10): Conv2d(256, 256, kernel_size=(3, 3), stride=(1, 1))
      (11): BatchNorm2d(256, eps=1e-05, momentum=0.1, affine=True, track_running_stats=True)
      (12): LeakyReLU(negative_slope=0.01, inplace=True)
      (13): MaxPool2d(kernel_size=2, stride=2, padding=0, dilation=1, ceil_mode=False)
      (14): ReplicationPad2d((1, 1, 1, 1))
      (15): Conv2d(256, 512, kernel_size=(3, 3), stride=(1, 1))
      (16): BatchNorm2d(512, eps=1e-05, momentum=0.1, affine=True, track_running_stats=True)
      (17): LeakyReLU(negative_slope=0.01, inplace=True)
      (18): ReplicationPad2d((1, 1, 1, 1))
      (19): Conv2d(512, 512, kernel_size=(3, 3), stride=(1, 1))
      (20): BatchNorm2d(512, eps=1e-05, momentum=0.1, affine=True, track_running_stats=True)
      (21): LeakyReLU(negative_slope=0.01, inplace=True)
      (22): MaxPool2d(kernel_size=2, stride=2, padding=0, dilation=1, ceil_mode=False)
      (23): ReplicationPad2d((1, 1, 1, 1))
      (24): Conv2d(512, 512, kernel_size=(3, 3), stride=(1, 1))
      (25): BatchNorm2d(512, eps=1e-05, momentum=0.1, affine=True, track_running_stats=True)
      (26): LeakyReLU(negative_slope=0.01, inplace=True)
      (27): ReplicationPad2d((1, 1, 1, 1))
      (28): Conv2d(512, 512, kernel_size=(3, 3), stride=(1, 1))
      (29): BatchNorm2d(512, eps=1e-05, momentum=0.1, affine=True, track_running_stats=True)
      (30): LeakyReLU(negative_slope=0.01, inplace=True)
    )
    (out_block): Sequential(
      (0): Conv2d(512, 10, kernel_size=(1, 1), stride=(1, 1))
      (1): LeakyReLU(negative_slope=0.01, inplace=True)
    )
  )
  (ssm): SpatialLogSoftmax()
  (key2map): GaussianLike()
  (decoder): Unit(
    (in_block): Sequential(
      (0): ReplicationPad2d((1, 1, 1, 1))
      (1): Conv2d(74, 512, kernel_size=(3, 3), stride=(1, 1))
      (2): BatchNorm2d(512, eps=1e-05, momentum=0.1, affine=True, track_running_stats=True)
      (3): LeakyReLU(negative_slope=0.01, inplace=True)
    )
    (core): Sequential(
      (0): ReplicationPad2d((1, 1, 1, 1))
      (1): Conv2d(512, 512, kernel_size=(3, 3), stride=(1, 1))
      (2): BatchNorm2d(512, eps=1e-05, momentum=0.1, affine=True, track_running_stats=True)
      (3): ReLU(inplace=True)
      (4): UpsamplingBilinear2d(scale_factor=2.0, mode='bilinear')
      (5): ReplicationPad2d((1, 1, 1, 1))
      (6): Conv2d(512, 256, kernel_size=(3, 3), stride=(1, 1))
      (7): BatchNorm2d(256, eps=1e-05, momentum=0.1, affine=True, track_running_stats=True)
      (8): ReLU(inplace=True)
      (9): ReplicationPad2d((1, 1, 1, 1))
      (10): Conv2d(256, 256, kernel_size=(3, 3), stride=(1, 1))
      (11): BatchNorm2d(256, eps=1e-05, momentum=0.1, affine=True, track_running_stats=True)
      (12): ReLU(inplace=True)
      (13): UpsamplingBilinear2d(scale_factor=2.0, mode='bilinear')
      (14): ReplicationPad2d((1, 1, 1, 1))
      (15): Conv2d(256, 256, kernel_size=(3, 3), stride=(1, 1))
      (16): BatchNorm2d(256, eps=1e-05, momentum=0.1, affine=True, track_running_stats=True)
      (17): ReLU(inplace=True)
      (18): ReplicationPad2d((1, 1, 1, 1))
      (19): Conv2d(256, 256, kernel_size=(3, 3), stride=(1, 1))
      (20): BatchNorm2d(256, eps=1e-05, momentum=0.1, affine=True, track_running_stats=True)
      (21): ReLU(inplace=True)
      (22): UpsamplingBilinear2d(scale_factor=2.0, mode='bilinear')
      (23): ReplicationPad2d((1, 1, 1, 1))
      (24): Conv2d(256, 128, kernel_size=(3, 3), stride=(1, 1))
      (25): BatchNorm2d(128, eps=1e-05, momentum=0.1, affine=True, track_running_stats=True)
      (26): ReLU(inplace=True)
      (27): ReplicationPad2d((1, 1, 1, 1))
      (28): Conv2d(128, 64, kernel_size=(3, 3), stride=(1, 1))
      (29): BatchNorm2d(64, eps=1e-05, momentum=0.1, affine=True, track_running_stats=True)
      (30): ReLU(inplace=True)
    )
    (out_block): Sequential(
      (0): Conv2d(64, 3, kernel_size=(1, 1), stride=(1, 1))
      (1): LeakyReLU(negative_slope=0.01, inplace=True)
    )
  )
)
[32mEPOCH 0 LR: 0.0001 [36mave loss: 0.4056532710790634 [94mbest loss: 0.4056532710790634 [0m
[32mEPOCH 1 LR: 0.0001 [36mave loss: 0.38696400821208954 [94mbest loss: 0.38696400821208954 [0m
[32mEPOCH 2 LR: 0.0001 [36mave loss: 0.46321611404418944 [94mbest loss: 0.38696400821208954 [0m
…
